…
ding)(x) cnn_feat = Flatten()(x) x = Dense(units= 32, activation=hidden_act_fun)(cnn_feat) x = BatchNormalization()(x) x = Dense(units = 8, activation=hidden_act_fun)(x) x = BatchNormalization()(x) dense = Dense(units= 1, activation=final_act_fun)(x) # Compile Model p_phase_picker = Model(input_trace, dense, name = name) p_phase_picker.compile(optimizer = optimizer, loss = loss_type) p_phase_picker.summary()  _________________________________________________________________ Layer (type) Output Shape Param # ================================================================= input_1 (InputLayer) (None, 1800, 3) 0 _________________________________________________________________ conv1d_1 (Conv1D) (None, 1800, 32) 608 _________________________________________________________________ max_pooling1d_1 (MaxPooling1 (None, 900, 32) 0 _________________________________________________________________ conv1d_2 (Conv1D) (None, 900, 64) 12352 _________________________________________________________________ max_pooling1d_2 (MaxPooling1 (None, 450, 64) 0 _________________________________________________________________ flatten_1 (Flatten) (None, 28800) 0 _________________________________________________________________ dense_1 (Dense) (None, 32) 921632 _________________________________________________________________ batch_normalization_1 (Batch (None, 32) 128 _________________________________________________________________ dense_2 (Dense) (None, 8) 264 _________________________________________________________________ batch_normalization_2 (Batch (None, 8) 32 _________________________________________________________________ dense_3 (Dense) (None, 1) 9 ================================================================= Total params: 935,025 Trainable params: 934,945 Non-trainable params: 80 _________________________________________________________________  Training the Model With our data read in and our model architecture defined, we are now ready to run our baseline convolutional neural network. With Keras, this amounts to giving our compiled m
…
